convolutional-neural-networks/mnist-mlp/model.pt (torch_old, 873188 bytes, 6 tensors)

fc1.weight f4 [256, 784]
000000 00 5e 38 bb 77 d5 90 bc dc 46 dc bc d0 e5 07 bb
       -0.00281322 -0.017679913 -0.026889257 -0.0020736344
000010 00 7c 8c 3c 36 d1 e6 3c 5a b1 8a bc 90 4d 14 3c
       0.017148972 0.028175931 -0.016930271 0.0090516955
000020 e8 61 3f 3c f8 68 7b 3c d0 26 8f 3b d0 b8 45 3c
       0.0116810575 0.015344851 0.0043686405 0.0120679885
000030 fd a8 0a bd b2 c4 4a bc 00 18 ee b7 ac 66 c5 bc
       -0.033852566 -0.012375997 -2.8382987e-05 -0.02409681
000040 7f 2e 08 3d 80 06 37 ba 58 8c 8a 3b fc 7e 0d 3c
       0.033247467 -0.00069818646 0.004228156 0.008636232
000050 60 9b ba bc f8 b0 82 3b 60 19 84 bc 3c 7a df bc
       -0.022779167 0.0039883815 -0.016125381 -0.027279966
000060 20 d6 2a bb fb 38 00 3d c4 24 47 3c 00 6b de 3b
       -0.002606757 0.03130434 0.012154762 0.0067876577
000070 b5 02 8a bc 9c bf ff bc fc b6 35 bc 68 f8 0c bd
       -0.016846994 -0.031219296 -0.01109099 -0.034416586
000080 a8 39 7f 3c 68 29 e0 bc fa fa a4 bc f4 b7 b7 bb
       0.015577711 -0.027363494 -0.020139206 -0.0056066457
000090 1b 3e ae 3b 32 c8 e5 bc 3c ac 30 ba 8f eb 9f 3c
       0.005317462 -0.028049562 -0.0006739532 0.019521503
0000a0 c7 d3 85 3c 24 a3 97 3c 93 74 d5 bc 6b 1c 8a bc
       0.016336335 0.018510409 -0.026056563 -0.016859254
0000b0 bd a5 85 3b bd 2d 93 bc 6e bd b6 bc 20 87 6b bc
       0.0040785954 -0.017966146 -0.022307124 -0.014375478
0000c0 cb e5 f5 3a a4 2d 57 bc 69 e2 4a 3c 41 53 f9 bb
       0.00187605 -0.01313344 0.012383082 -0.0076088016
0000d0 0c 39 ae bc 60 99 38 3b 2a 86 7e bc b0 49 95 3c
       -0.021267436 0.002816759 -0.015534917 0.018223614
0000e0 60 29 70 3c e0 25 b6 bc 0e 42 cc 3c 30 4e a7 bc
       0.014658302 -0.022234857 0.024933841 -0.020423025
0000f0 c0 2b 3a 3c 9c 92 1f 3c da 6a 71 b8 0e 1c 18 3c
       0.01136297 0.009739544 -5.755839e-05 0.0092840325
000100 4d 95 0a ba 43 d6 94 bb 94 30 b6 bc 45 fc b3 bc
       -0.000528653 -0.0045421435 -0.02223996 -0.021970877
000110 ff 58 b1 bc 30 7f 68 bc b0 45 0e bd 20 ac a6 3c
       -0.021648882 -0.01419048 -0.034734428 0.020345747
000120 b0 88 24 bc 02 81 dd bc 3b ef 55 3c 10 2b a6 b8
       -0.010042354 -0.027039055 0.013057525 -7.923518e-05
000130 6a 8a d7 3b 3c da ef bc 57 89 2f bc 2c 2b 71 ba
       0.0065777795 -0.029278867 -0.010713897 -0.00091998535
000140 01 61 ab bc bc f4 bc bc 80 fa 50 bc c9 e9 11 3d
       -0.020920279 -0.023065917 -0.012755036 0.035623346
000150 1c 7c 0a 3c fc 82 71 3c 50 dd 8e 3c 5a 2f 36 bc
       0.008452442 0.014740702 0.017439514 -0.011119688
000160 0c 3b f3 bb ab fe 0f 3b 0b dc 7a bc fb 94 79 bc
       -0.0074228104 0.0021971862 -0.015311251 -0.015233274
000170 92 df 31 bc 29 70 ce 3c 93 d4 de bc ee 2d 53 bc
       -0.010856526 0.025199967 -0.027200973 -0.012889368
000180 c5 8b d0 3c b2 14 15 bd d6 9b 2a 3b e4 5e 27 bc
       0.025457272 -0.03639669 0.0026032827 -0.010215495
000190 5c 65 82 bd 3a b7 80 bc 68 73 44 3c bb 27 b3 bc
       -0.06366989 -0.01571237 0.011990406 -0.02186953
0001a0 5e 24 d9 bb e2 a5 0e bd 43 e6 e6 3c 42 cd 1d 3b
       -0.0066266498 -0.034826167 0.02818597 0.0024078642
0001b0 ef 71 73 bc 3e 96 04 3d 0f 37 0a bd 36 59 e2 3c
       -0.014858707 0.032369845 -0.033743914 0.02763043
0001c0 28 ec 3f 3c be 2b 8e 3c 65 04 a1 bc 15 70 f0 bc
       0.011714019 0.017354842 -0.019655416 -0.02935032
0001d0 34 14 d5 3b b5 41 d8 3a c7 2c c3 bc fb 40 e7 3c
       0.0065026525 0.0016499074 -0.023825062 0.028229227
0001e0 ae 97 c0 bc 30 6c 53 3b ce 02 99 bc 5f 3b 87 bc
       -0.023509827 0.003226053 -0.018678095 -0.016507803
0001f0 f4 94 8f ba 80 9d 70 3a 8b d1 67 bd a4 cf 39 3c
       -0.0010954426 0.0009178743 -0.05659632 0.011341009
000200 a9 c7 6d 3c e9 ef 3a bd 9c 69 1c 3c a4 a7 e0 3c
       0.014512935 -0.045638952 0.009546664 0.027423687
000210 43 a2 1c 3d 27 6c bb bc 62 e3 ac bc 1f f5 0e 3b
       0.038240682 -0.02287872 -0.021104518 0.0021813584
000220 34 67 17 bd c0 c8 d3 3b 07 7b c0 3c 4c e2 93 bc
       -0.036963657 0.0064631402 0.023496164 -0.018052243
000230 42 1c 96 3c b8 83 77 3c f8 cb 98 3c 62 80 28 bc
       0.018324021 0.015107088 0.018651947 -0.010284515
000240 e0 26 3b bc ac 7c 25 bb f5 0f f0 bc f0 e1 a3 bc
       -0.011422843 -0.0025251312 -0.029304484 -0.020005196
000250 67 b9 da 3b 74 b4 6c 3a 2e 5e ec ba df 2d 6b bd
       0.0066749337 0.0009029575 -0.0018033439 -0.057416793
000260 f1 98 d2 bc 47 72 b9 bc 44 e8 08 bd b7 db 23 bd
       -0.025707694 -0.0226375 -0.03342463 -0.04000446
000270 0b 7c 49 bd 52 e7 5d bd e5 74 29 bd 07 e5 8a bd
       -0.049190562 -0.054175682 -0.041371245 -0.06781965
000280 26 b3 a4 bd 58 6c 61 bd 53 da 38 bb b6 89 11 bd
       -0.08041982 -0.055034965 -0.0028206303 -0.035531722
000290 60 8d b0 3c 6d bc 46 bb 69 9e 23 bc 80 00 ef 3b
       0.021551788 -0.0030324713 -0.009986498 0.007293761
0002a0 00 fd 1c b9 30 b3 89 bb f7 c7 d5 bc 6a 3d 9d 3c
       -0.00014971569 -0.004202269 -0.026096327 0.019194324
0002b0 a8 7f c1 3c ac a9 e5 bc 68 4c df 3b ec 9c 22 3b
       0.023620442 -0.028035007 0.0068145283 0.002481277
0002c0 ca a4 ed bc 00 cb 0b bd 4e db 02 3c 65 f9 51 3b
       -0.029009242 -0.034129143 0.007986857 0.003203952
0002d0 38 4a 72 3a 65 fe 15 b9 3e 43 9f 3b 5d 53 37 3c
       0.0009242627 -0.00014304517 0.004860311 0.011189309
0002e0 04 9a ca 3b 78 21 49 bb 53 15 ec 3b c0 f6 09 3c
       0.006182911 -0.0030690115 0.0072046905 0.008420646
0002f0 6e 3b c1 3b e0 73 ee 3b c3 8f b4 bc a2 d6 42 bc
       0.005896977 0.007276997 -0.022041207 -0.011891993
000300 c0 9b 11 bd 02 b3 3f bd 42 0e 0b bd 7a fd e8 bb
       -0.035548925 -0.046801575 -0.033949144 -0.007110295
000310 33 cd 00 3d 2d 4e d2 3c c6 b3 bf bc 18 8d 85 3c
       0.031445693 0.025672043 -0.023401152 0.01630263
000320 05 86 fa 3b 48 b8 9a bc 87 50 4d bd ee f3 44 3b
       0.007645371 -0.0188867 -0.050125625 0.003005262
000330 5f b9 6a bc e5 a9 80 3c 43 9f 1d 3d 09 54 59 bc
       -0.0143264225 0.015706012 0.038481962 -0.013264664
000340 02 e7 a7 3c e1 93 a4 bc 8e bd b5 3b a9 65 1a bd
       0.020495895 -0.020090045 0.0055462783 -0.037694607
000350 d6 35 bb 3c 39 cf 97 3c ad 90 cb bc 2c cf cb 3b
       0.02285282 0.018531429 -0.02484926 0.006219765
000360 69 28 d9 bb dc e0 15 bd 3a 21 f1 3c 65 54 3b 3d
       -0.0066271317 -0.036591396 0.029434789 0.04573478
000370 d0 39 f7 bc 31 7d 0f 3c 44 34 ff bc 15 f7 1a 3c
       -0.030178934 0.008757875 -0.031152852 0.009458323
000380 cb 4e 05 bd d8 95 d6 3c 4e 19 03 bd c0 6b dd bb
       -0.032545846 0.026194498 -0.032006554 -0.0067572296
000390 9f f0 c4 3c 10 b8 d2 3c 43 bb 0d 3d bb 1f 01 3d
       0.024040518 0.025722533 0.034602415 0.0315244
0003a0 df 41 eb bc 1a d4 8f bc 96 f9 42 bd b6 fd 90 3c
       -0.028717933 -0.017557193 -0.047601305 0.017699104
0003b0 44 83 06 bc c7 40 30 3c af 3b b8 39 ec fc 18 3d
       -0.008210007 0.010757632 0.00035139683 0.03735058
0003c0 9b 33 76 bc 3b 67 22 3d 12 79 e7 3c a0 a6 c6 3c
       -0.015026952 0.03964923 0.028255973 0.024249375
0003d0 52 3c 3c 3c 78 7f f1 bc bb bb 9c 3c bd c1 12 bc
       0.011488991 -0.029479727 0.019132486 -0.008957324
0003e0 ed 63 8d bc e7 06 22 3c 42 5a ac bc 24 44 a1 3b
       -0.017259562 0.009889341 -0.021039132 0.004921453
0003f0 40 fc b2 3c 50 04 04 3d cb 39 65 ba 73 d4 e5 bc
       0.021848798 0.032230675 -0.00087442686 -0.028055405

fc1.bias f4 [256]
000000 a7 0f 78 3b d8 1a d8 3c 8b 9a ae bc 5f 37 ab 3b
       0.0037851126 0.026379988 -0.021313926 0.0052251066
000010 e2 a8 2f 3d 03 6e b0 3d be 5d a8 3b 4b 57 66 bc
       0.04288567 0.08614733 0.005138128 -0.014058898
000020 4d 40 51 3c 44 c7 98 3b 5d 3b 24 bd fb d0 d2 3c
       0.012771678 0.004662426 -0.040095676 0.025734415
000030 55 a8 98 3a 12 bd c1 3c 4e 18 59 3b d3 18 62 3c
       0.0011646847 0.023649726 0.003312606 0.013799864
000040 a1 00 17 bd b4 df 47 3d 04 ea be 3c f2 6a 1c 3d
       -0.036865834 0.048797324 0.023304947 0.03818793
000050 d2 51 52 bd ac 15 75 3d 87 ff c3 3a 52 e8 fd 3d
       -0.05134756 0.05983512 0.0014953472 0.12397827
000060 46 b2 0e 3e c0 b3 3f 3c ec 74 b7 3c 4e 90 70 3d
       0.13935193 0.011700571 0.02239462 0.05873137
000070 9c 9c d5 bb 19 9d 3a 3d b3 bb 65 bc 92 14 8a 3d
       -0.0065189134 0.045559976 -0.014021802 0.06742205
000080 ab 18 1b 3d 17 b6 50 bc 2f 28 c3 bb 38 3d 4b 3d
       0.037865322 -0.012738726 -0.005955718 0.04961893
000090 89 9c 3e 3b 81 df 09 bd b1 bc 20 3c 23 4d fa 3d
       0.0029085001 -0.033660416 0.009810613 0.12221744
0000a0 06 ba 9c bc 61 91 19 bb e3 1b 54 3d 67 05 d0 3b
       -0.019131672 -0.00234326 0.051784407 0.0063483003
0000b0 92 57 20 bd a0 ef 7b bc aa 90 bb 3c ee 31 a7 3d
       -0.039146014 -0.015376955 0.02289613 0.0816382
0000c0 41 12 61 3d 74 b1 97 bc 79 90 c1 bd 5d d7 09 3c
       0.05494905 -0.018517233 -0.09451384 0.008413163
0000d0 b5 11 57 3c 97 39 88 3d eb dc 03 bb e0 b7 e8 3c
       0.01312678 0.066516094 -0.002012069 0.028407991
0000e0 e9 e4 63 3d 17 e3 65 3d 33 0e 5c 3d 23 06 3c bc
       0.055638228 0.056124773 0.05372448 -0.0114760725
0000f0 8c 26 2a 3d 1f e7 04 bc 93 4f 9f bb bc 91 13 bc
       0.041540667 -0.008111744 -0.004861781 -0.009006914
000100 50 7d c9 3c 65 74 06 3d 1d b0 a5 3d 34 cf 74 bc
       0.024595886 0.032825846 0.080902316 -0.014941979
000110 bf f9 3f bc 31 8f cd 3d 0f 8f ad bd 52 ae 21 bd
       -0.011717259 0.10037077 -0.08474552 -0.039472885
000120 8e 2b 42 3d ef ed 4c 3d 1a 39 95 3d 41 67 39 3c
       0.04740482 0.0500316 0.07286282 0.011316122
000130 97 07 c3 bc ac 4e bc 3d 59 e7 8f bc 57 55 ca bc
       -0.02380733 0.09194693 -0.01756637 -0.024698896
000140 a6 9b ff 3d 65 9d c0 bd 93 74 e2 3c 58 72 fa bc
       0.124808595 -0.094050206 0.027643478 -0.030572101
000150 f2 fc 56 bd 3e 77 e7 3c 64 39 34 3d 97 b8 e8 bd
       -0.05248732 0.028255101 0.044000044 -0.11363333
000160 01 2a 22 3d 19 75 a8 3d 12 79 ec bc 87 f1 b8 3d
       0.03959084 0.082254596 -0.028866325 0.09030443
000170 6c bb 80 3d 2d 78 ee 3c 5c e2 34 bd 46 4c a7 bc
       0.06285748 0.029110039 -0.044161186 -0.020422112
000180 6a e9 69 bd 5c 25 66 ba 26 5a 41 3d 48 51 dc bc
       -0.057107367 -0.00087793707 0.047205113 -0.026894227
000190 3d 47 c6 3b be 8b ca 3c 31 58 7f 3d 8a 43 14 bd
       0.0060509727 0.024724837 0.062339965 -0.036197223
0001a0 de fc 21 3a e7 10 f9 3b 7a d3 83 bc d8 ab 57 3d
       0.0006179343 0.007600892 -0.01609205 0.052654117
0001b0 52 36 27 bd 34 a2 98 3b b3 0c a7 3d 2c 1e 37 ba
       -0.04082329 0.004658008 0.08156719 -0.0006985392
0001c0 46 15 97 3d c5 6d 03 3d 00 62 b9 bd 9b 68 b2 bd
       0.073771045 0.032087106 -0.09051895 -0.08711358
0001d0 3a d6 4a 3e e2 e7 8d 3d 0e 67 d3 bc 51 d0 27 bc
       0.19808283 0.06928994 -0.025805976 -0.010242538
0001e0 6e 24 bb 3c d7 05 a2 bc 74 00 0b bc db 1a c7 3b
       0.02284452 -0.019778175 -0.008483995 0.0060761995
0001f0 83 44 5e bc bf 49 7b bd 27 04 fb bc ff d5 bc bd
       -0.013566139 -0.061349627 -0.030641628 -0.09220504
000200 4c 45 54 bd 90 ee 53 bb a6 20 9e bc 3b 7c f5 3c
       -0.0518239 -0.003233824 -0.019302677 0.029966464
000210 fa 41 bb 3c d3 fd b2 3c ee 1b ca 3d 21 ea 8c bc
       0.022858609 0.021849548 0.098686084 -0.017201485
000220 4a 95 33 bc 70 a8 b0 3b 8a 74 d7 3c 81 ea 15 bd
       -0.010960886 0.005391173 0.026300687 -0.036600593
000230 a6 13 a3 3d 80 47 8e bb df fa 08 3d 09 c6 32 3e
       0.07962732 -0.0043420196 0.033442374 0.17458357
000240 f1 46 d3 ba 50 e4 8f 3d e7 9f 79 bd 75 0d 51 ba
       -0.0016119165 0.07025969 -0.06094351 -0.00079747225
000250 02 5f 92 3a 05 41 df bb cd 62 bc 3d 6c 5b 86 3d
       0.001116723 -0.006813171 0.09198532 0.06560406
000260 44 c0 02 3d 62 33 84 bc 96 d3 14 3d 6f c8 7f 3d
       0.03192164 -0.016137782 0.036334597 0.062447008
000270 f5 ea be 3b 03 5d 97 bc 4b 06 e7 bd ec db 90 3d
       0.005826349 -0.018476969 -0.11280497 0.07073197
000280 f1 d7 2c bc 6a 96 4b bd 7c 95 0d bc 75 0c 35 3b
       -0.010549531 -0.049703993 -0.008641597 0.0027625833
000290 be d8 23 bb 40 aa ce bc fd 94 88 bd ed 5c 6b bd
       -0.0025001015 -0.025227666 -0.06669042 -0.057461668
0002a0 c5 ec af bd 12 77 f4 3d d2 9a bc bc 0f a9 37 bd
       -0.08590082 0.11936773 -0.023023043 -0.04483896
0002b0 b2 36 8b 3b f0 54 50 3d 10 3b 9f bd fa de ce 3c
       0.0042484635 0.050862253 -0.07774937 0.025252808
0002c0 77 13 14 3e 92 51 90 bd c5 a1 6c bc af 3c 4d 3c
       0.1446055 -0.07046808 -0.014442866 0.012526675
0002d0 b9 63 11 3d d3 2e 5e 3c f8 cb fc 3c 69 e4 bb 3c
       0.035495494 0.013560968 0.030858979 0.022936063
0002e0 84 ef d1 bd 46 50 42 3d 73 8e 0e 3d 0c 98 8a bd
       -0.10250762 0.047439836 0.03480382 -0.06767282
0002f0 d5 24 b2 3c 9e f4 c5 3c 48 5d 9a 3d 8c 6a fb 3d
       0.021746079 0.024164494 0.07537323 0.122761816
000300 e1 cf 16 bd 66 af 2c 3d aa 46 51 bd eb e4 4c bd
       -0.036819343 0.04215946 -0.05109278 -0.050023
000310 cb 48 e1 bc 95 33 a4 bd ba 01 a6 3c 09 0c 08 3c
       -0.02750053 -0.08017651 0.020264495 0.008303651
000320 f5 b2 de bc 55 e0 ab 3d d7 9a 2a bd 08 80 17 bd
       -0.027184943 0.08392397 -0.041651573 -0.036987334
000330 1a 91 b8 3c 59 82 b1 bc cd a0 fb bc 27 4e 1c 3e
       0.022530127 -0.0216686 -0.030716324 0.15264188
000340 85 63 1b 3d 44 6f 74 3d 80 f5 d2 3b 5d 40 f0 3c
       0.037936706 0.059676424 0.0064379573 0.029327566
000350 ce 9a 92 bd d7 9a 89 3d b6 96 23 3c 04 5f 19 bd
       -0.07158433 0.067189865 0.009984663 -0.03744413
000360 2a 91 00 3d 8e 63 99 bc fe 1b 5f bd ba 41 38 bd
       0.03138844 -0.01872423 -0.054470055 -0.044984557
000370 91 62 d6 3b 16 aa 14 3c ab 3d cc 3c d2 5c 08 3d
       0.0065425118 0.009073755 0.02493175 0.033291645
000380 7f 30 49 bd 5a 0f 8c 3c ec 45 a5 3d 26 0e 42 3e
       -0.049118515 0.017097164 0.08069977 0.1895071
000390 5c b4 1b bc 57 01 48 bd 22 be 63 3d 52 c0 fe bc
       -0.00950345 -0.048829403 0.055601247 -0.031097565
0003a0 24 1d d0 bc 8b 98 df bc 29 ab f1 3b a1 34 f6 3c
       -0.02540452 -0.027294418 0.00737514 0.030054392
0003b0 e9 6b 2e 3d d5 ec ad 3d 24 8d 2d bd 9d e3 86 bc
       0.04258338 0.08492438 -0.04237093 -0.016465956
0003c0 de 1b 3e bd bd 66 f1 bc 04 0c 33 3d 71 99 18 bd
       -0.046413295 -0.029467935 0.04371263 -0.037255708
0003d0 68 74 a6 3c ad dc 0f bd 60 e3 82 3d b9 09 5c bd
       0.020319179 -0.035122562 0.063910246 -0.05372021
0003e0 3e 31 dd 3c db 77 28 3e 25 b4 b1 bc 42 8d 50 3d
       0.02700102 0.16451971 -0.021692345 0.050915964
0003f0 db d7 0b 3d 91 ae 44 bc 1b 2b 91 bd e5 15 d5 3d
       0.034141403 -0.0120045105 -0.070883 0.10404567

fc2.weight f4 [64, 256]
000000 a5 23 31 3d 5f a6 a2 3d df a5 46 3d 2d cd 20 3c
       0.043246884 0.07941889 0.04849803 0.009814543
000010 15 d2 1c bc dd 63 00 bd d0 b6 65 bd 20 b4 21 3b
       -0.009571572 -0.031345237 -0.056082547 0.0024674013
000020 bb 8f a1 bd 0e d0 aa 3c f7 7b 3d bd f3 5a 1b 3c
       -0.078887425 0.020851161 -0.0462608 0.009482133
000030 fa 8c 11 3d e0 f1 ca 3c b5 b6 fc bd 16 3c b1 bd
       0.035534836 0.024773538 -0.12339536 -0.086540386
000040 7b f9 a0 3d 83 b1 69 3d cd 79 41 bd 58 6b 3e 3d
       0.078600846 0.057054054 -0.0472353 0.04648909
000050 86 9d a1 bc 83 00 bd bd 0f 1e 25 bc 79 60 ee bc
       -0.019728433 -0.09228613 -0.010077967 -0.029098736
000060 47 9a e4 bc 16 5c 2f 3c 2a 2e e4 3c 6c c5 f1 3b
       -0.027905596 0.010703107 0.027854044 0.007378271
000070 59 8a 98 ba fb 48 f8 bc cd 15 4d bc 73 b8 0c 3d
       -0.001163791 -0.030308237 -0.012517405 0.034355592
000080 ec 60 a4 3c d2 4c 47 3d f5 03 31 3d 4f 50 c0 bc
       0.020065747 0.048657246 0.043216664 -0.023475794
000090 5a 3c 66 bd 12 2b 4c 3d 39 ab 72 bd a1 c2 92 3c
       -0.0562099 0.049845763 -0.059245322 0.017915072
0000a0 48 51 2f bd f0 b9 c4 3c 98 60 0b 3e 47 0c 8b bd
       -0.042802125 0.024014443 0.13611066 -0.06789451
0000b0 0a f5 c3 bb c1 16 71 3e 81 8a 9b bd b0 5a 9e 3c
       -0.0059801387 0.23543836 -0.07594777 0.019330353
0000c0 44 9d 1c bd 84 8f 40 3d 06 37 76 bb ec ee 95 3d
       -0.038235918 0.047011867 -0.0037569418 0.07320961
0000d0 e9 d2 64 3d af 6e 52 3d 6e 58 c1 3c 19 2c f0 bd
       0.055865202 0.051375087 0.023601737 -0.11727161
0000e0 52 2a 09 3e 0a 1e 6e 3c 67 ba 46 3d aa 9d cb 3d
       0.1339505 0.014533529 0.04851761 0.099421814
0000f0 ba 29 c7 3d 20 6d 10 bd 70 27 63 3d 81 3f fc bd
       0.097247556 -0.03526032 0.055457532 -0.123168
000100 8a b1 16 bd 0e 7a a5 bc 37 a5 8d 3d c7 68 83 3d
       -0.03679041 -0.020199802 0.06916278 0.06416469
000110 cf 3e e6 3d 0a 92 9e bd ce 52 61 bd 36 3c dd 3c
       0.112424485 -0.077426985 -0.05501061 0.02700625
000120 4f 74 02 3b 2d 82 f8 3c 79 1d 4b 3d f7 7a 41 3c
       0.001990575 0.03033551 0.049588654 0.011809102
000130 c9 95 2d bd c1 09 94 3d bb e6 e4 3c d7 8a 24 bd
       -0.042379174 0.07228423 0.027942052 -0.04017147
000140 4b 31 71 3c 36 e8 be 3c 8b df 18 bd d2 27 6c bd
       0.014721225 0.023304086 -0.037322562 -0.057655163
000150 54 10 2f be bf 19 ba 3d a8 48 35 3d 50 3d 05 3e
       -0.17096072 0.09086942 0.044258744 0.1301167
000160 8e 0f 70 3c eb df 83 3d 60 f3 89 bc 3b 7a 9a bd
       0.014652146 0.06439193 -0.016839683 -0.07542845
000170 8b 98 f1 bd 7e 90 33 3d 19 a5 f0 bc 15 b2 81 bd
       -0.117966734 0.04383897 -0.0293756 -0.063327946
000180 4d b6 c0 3c 2e bb c2 bc 77 9c 2b 3d 85 de 01 3e
       0.023524428 -0.023770895 0.041897263 0.1268254
000190 4d c2 33 3d df 96 57 3d fb 14 bd bd 33 07 06 be
       0.04388647 0.052634116 -0.09232517 -0.13088684
0001a0 0a 82 1b 3e 52 01 31 bd b6 64 25 bc 42 a8 08 bd
       0.15186325 -0.04321415 -0.010094812 -0.03336359
0001b0 a1 5b 6b bd ea d9 63 bd 37 fe e8 3b 41 e4 4b 3d
       -0.05746043 -0.05562774 0.007110383 0.049778227
0001c0 7a ab d5 3d d7 e0 00 be bb 75 35 3c f1 43 28 bd
       0.10433097 -0.1258577 0.011075432 -0.04108042
0001d0 2d 24 01 3e 71 48 b6 3d 25 ec 6f 3d f1 42 de 3d
       0.12611456 0.08900536 0.058574814 0.10852612
0001e0 1d f7 ee bc 7f c3 50 3c 92 5f 43 bc f9 11 4c 3d
       -0.029170567 0.012741922 -0.011924641 0.049821828
0001f0 ef a9 af bd ba 82 b2 bd 5f ca 07 3d b5 80 ab bd
       -0.08577334 -0.0871634 0.03315198 -0.08374158
000200 fb 0a 5c 3d 4c 1e d7 bb 46 bf 8b 3c d2 6d 12 bc
       0.05372141 -0.006564891 0.01705898 -0.008937316
000210 ad 4d ce 3c ff 26 64 bc 57 c7 45 3e b4 d0 79 bd
       0.025183523 -0.013925313 0.19314323 -0.06099005
000220 86 a8 78 bd f9 53 16 be 09 da 96 bb 3a d2 70 3d
       -0.06070759 -0.1468047 -0.0046036285 0.058794238
000230 b6 c6 23 bb 29 58 f4 3d d7 6d 10 3d 2d cd 06 3d
       -0.0024990267 0.11930878 0.035261 0.032910515
000240 87 34 14 3d 2d cd fc 3b 70 6e 8d bd b9 5d 73 bd
       0.036182906 0.0077148885 -0.0690583 -0.059415553
000250 b2 6e c5 bc 39 dd 69 3d a9 ff 2b 3e d7 3d 02 3d
       -0.024100635 0.05709574 0.16796745 0.031797256
000260 f9 b8 9c bd 34 da a2 3d 36 98 0e bd 25 4c 22 3e
       -0.07652468 0.07951775 -0.03481313 0.1584936
000270 94 44 e4 3d 1a d8 57 3c 88 0d ab 3d 3d 5c 1e bd
       0.11145893 0.013174081 0.0835219 -0.038662184
000280 70 3d 64 bb 69 f6 43 bc 36 dc ac bd 73 98 94 bd
       -0.0034826659 -0.011960604 -0.084404394 -0.0725564
000290 e5 e3 0b 3e bc 07 34 bd 92 8c c3 bd 8b 8a 35 3d
       0.13661154 -0.04395269 -0.09548296 0.044321578
0002a0 f0 49 58 3d 2a 54 fa 3c 81 70 9b bd d2 69 25 3d
       0.052804887 0.03055771 -0.07589818 0.04038412
0002b0 d4 89 cd bc a2 73 6e 3d ad 4e 47 be 1c d3 e0 bc
       -0.025090136 0.058215745 -0.19463606 -0.027444415
0002c0 b6 f7 68 3e 57 a2 0b be bb ad 58 3d df 24 e2 bd
       0.22750744 -0.13636146 0.052900057 -0.11042189
0002d0 f5 57 3b 3d 79 f4 e3 3c ce 4e b8 3d f9 af 30 bd
       0.04573818 0.027826535 0.08999406 -0.04313657
0002e0 b5 3c 71 3d 7b 7e 91 3d f5 48 61 bd d4 82 88 bc
       0.058895785 0.07104202 -0.055001218 -0.016663946
0002f0 40 14 93 bd 73 eb bd bb f3 36 b4 bd 1e fd a6 bc
       -0.07181597 -0.00579589 -0.08799543 -0.020384368
000300 c8 77 15 bd 8e 9a a1 3b 89 bb c6 bd 58 67 dc 3d
       -0.036491185 0.0049317544 -0.09703738 0.10761899
000310 22 bd 79 3c 86 95 3b 3d 90 b1 71 bc 31 37 5c 3d
       0.015242847 0.045796894 -0.014751807 0.053763572
000320 38 f6 94 bd 59 99 2d bd 1c 67 12 be 71 0d c9 bd
       -0.07273525 -0.04238257 -0.14297146 -0.09817017
000330 c8 42 b3 bd 98 c7 8a 3b 54 66 76 bd af c4 4a 3c
       -0.08752972 0.004235219 -0.06015618 0.012375995
000340 b7 10 38 3d 87 a4 35 3d 6f e1 21 3d 7e da b5 bd
       0.044937816 0.04434636 0.03952163 -0.08879565
000350 02 bb 04 3c a9 ff a6 bb 23 4e 3c bd 40 e1 0a bd
       0.008101227 -0.005096395 -0.045972954 -0.03390622
000360 65 b7 1a be f2 78 18 be 92 09 1c bd 87 79 43 3d
       -0.15109022 -0.14889887 -0.038095064 0.04772332
000370 a1 02 99 3d 50 a9 18 3d 46 f2 82 3d 89 93 ac bc
       0.074712045 0.037270844 0.06393866 -0.021066444
000380 71 42 bd bc df e3 6f bd 9b 0f 9c 3d cc db 7d 3e
       -0.02310297 -0.058566924 0.07620164 0.24790877
000390 28 1c 97 bd 1d 18 26 bd 28 0e a2 bd 83 f9 2f bd
       -0.07378417 -0.04055034 -0.07912856 -0.042962562
0003a0 a6 4b 7d 3d 3b c6 08 bc ef 05 b2 3c fd 9f 82 bc
       0.061839722 -0.008348043 0.021731345 -0.015945429
0003b0 d2 21 28 bd c5 fe 00 3d 81 2f b7 bc ab c3 c2 bd
       -0.04104788 0.031492967 -0.022361519 -0.09509977
0003c0 e2 61 16 bd 82 cf ab 3c 5b 27 0b 3c da c0 17 bd
       -0.036714442 0.02097297 0.00849327 -0.037049152
0003d0 69 5b aa 3b 1c cf 00 3e a0 61 26 be 6c bd bb 3d
       0.005198885 0.12579006 -0.16248178 0.09166989
0003e0 1b 9e 1c 3e 47 b4 3b 3e 81 fb a0 3d af 0d 47 bd
       0.15294687 0.18330489 0.078604706 -0.048597034
0003f0 17 cc 93 bc a3 d5 99 bc 8b 28 c8 bd bb 2f a4 ba
       -0.018041654 -0.018778628 -0.09773358 -0.0012526432

fc2.bias f4 [64]
000000 cd e6 9c 3c 3a 1b 1d 3e 68 76 29 3d 38 50 1f 3d
       0.019153023 0.15342417 0.041372687 0.038894862
000010 fe 62 b3 bc 70 b8 2f 3e 7a 9d b1 3d 5b b8 3f 3e
       -0.02189779 0.17160201 0.086726144 0.1872267
000020 fb 2d d5 bb 5e 65 d6 bd 89 02 92 bc d8 a6 a5 3d
       -0.0065057254 -0.10468553 -0.017823474 0.080884635
000030 0c 91 a2 3d 47 5a 9e bc 69 ec 4e 3e 3d ef 29 3e
       0.07937822 -0.019330157 0.20207371 0.16595168
000040 e4 06 d0 3d 5a 1c 3b 3e 18 82 11 3e b4 e4 b3 3d
       0.10157564 0.18272534 0.14209783 0.08783856
000050 da cd 2d 3e 47 47 19 3d 3f 29 33 3e 13 e1 51 3e
       0.16973057 0.03742149 0.17496203 0.20496015
000060 f5 65 8d 3d a4 9e d0 3d 21 b9 58 bd 99 cf 50 3e
       0.069042124 0.10186508 -0.052910928 0.20391692
000070 09 c1 6f 3e f3 b3 27 3e 38 a6 11 3e 6d 59 88 3d
       0.23413481 0.16377239 0.14223564 0.066576816
000080 13 cd 44 3d 34 2a 62 3d 95 67 0c 3e 02 a1 55 3e
       0.048047137 0.05521603 0.13711388 0.20862201
000090 65 cf 5b 3e ef 52 41 3e 26 4e b6 3d 4e cb 49 3e
       0.21465833 0.18879293 0.089016244 0.19706461
0000a0 90 2a bc 3d d9 c1 3f 3d ab 0d 53 3e bc f3 47 3d
       0.09187806 0.046815727 0.20610683 0.048816428
0000b0 86 81 2a bc d3 44 bc 3d 3d 71 6a bd 45 8e ad 3d
       -0.010406857 0.09192815 -0.0572369 0.084744014
0000c0 e1 c8 3d 3e c9 01 af 3c c6 03 16 3b 33 4b 86 bc
       0.1853366 0.021363156 0.0022890433 -0.01639328
0000d0 75 f9 0e 3d e0 b8 19 3e 5b 40 65 3e 43 9d 1b 3e
       0.03490587 0.1501193 0.22387831 0.1519671
0000e0 72 82 5e 3d 73 71 a0 3d 24 f8 28 3e 7b ee 90 3c
       0.05432362 0.07834139 0.16500908 0.017691841
0000f0 80 5f 4c 3e a9 b2 af 3d 3e 1b 8e b9 92 cb 39 ba
       0.19958305 0.085789986 -0.00027104648 -0.0007087524

fc3.weight f4 [10, 64]
000000 88 77 4a be 0f 18 b7 3e c6 e2 0c 3f 66 b2 5b be
       -0.1977216 0.35760543 0.5503353 -0.21454772
000010 30 8c 2a 3d 78 0b b7 be 00 be 2e 3e b7 b4 05 be
       0.0416376 -0.35750937 0.17064667 -0.13057218
000020 d5 c6 e7 3e f6 01 33 3f 7d 80 42 3f ff 76 c0 be
       0.45268884 0.6992487 0.7597731 -0.37590787
000030 47 d8 c4 bd 0b c0 d6 bc bf af f0 3e a7 4c b0 be
       -0.09611564 -0.02621462 0.47009084 -0.3443348
000040 70 db 0f 3f 0e 28 ec 3e de 4d 0a 3f f6 26 d8 be
       0.5619421 0.4612431 0.54025066 -0.42217225
000050 ff c4 b3 3e 24 46 c2 be 5f 65 cd be f3 c7 68 be
       0.35111234 -0.37944138 -0.40116403 -0.22732525
000060 cf 97 b4 bd c0 c2 83 be 78 1c 3c 3d 07 13 19 3e
       -0.08818018 -0.2573452 0.045925587 0.14948665
000070 ab e4 f5 be 4a 4c 10 bf aa 3f da 3e 6c 0f fb 3e
       -0.48026022 -0.5636641 0.42626697 0.49035203
000080 3c d6 6a 3e 42 43 83 be 63 db 7d be 99 ed 4c be
       0.22933286 -0.2563725 -0.2479072 -0.20012511
000090 ae 29 67 be 74 c8 da be 77 87 42 be 2f 25 6f be
       -0.22574493 -0.4273106 -0.18996988 -0.23354028
0000a0 9f ed cb bc b6 64 09 3f 1f 32 3a 3e 3d ad 76 3e
       -0.02489358 0.536693 0.18183182 0.24089523
0000b0 cf c6 90 3c 50 d2 a1 bd 40 dd 1b 3e 96 e1 e4 3e
       0.017672924 -0.07901442 0.15221119 0.44703358
0000c0 9a 85 a7 be 82 3b 40 3c f9 fe 44 3d a4 52 b7 be
       -0.32719117 0.011732938 0.048094723 -0.35805237
0000d0 4e b8 dc 3d 10 e5 39 be 8f 2e e0 3e 82 96 e4 be
       0.10777341 -0.18153787 0.4378552 -0.44646078
0000e0 4d cd a3 3e 3a b9 c4 3e 73 a0 93 be bf c9 41 be
       0.3199257 0.38422567 -0.2883335 -0.18924616
0000f0 20 53 bf 3e a5 a7 f4 be db 01 8f 3c 63 2e 2d 3f
       0.37368107 -0.47784153 0.01745694 0.67648906
000100 c0 bd 0e be 13 62 c1 be 92 3a b7 bd e3 99 84 be
       -0.13939571 -0.37770137 -0.08946718 -0.25898656
000110 83 4b 12 bd fc a5 d0 3e 9d 85 70 3d 0d 70 02 3f
       -0.035716545 0.40751636 0.058721174 0.50952226
000120 9e 08 84 be fd f5 a1 3d e1 51 95 bd 30 0f 00 3f
       -0.25787824 0.07908247 -0.07291008 0.50023174
000130 e6 1b cf bd fd 25 92 3e 67 5f fd be f3 db d4 3e
       -0.10112743 0.28544608 -0.4948685 0.41574058
000140 11 41 bb bd 03 d9 d8 be 7f ed d8 be 8a b1 52 be
       -0.0914327 -0.42353067 -0.42368695 -0.20575538
000150 84 a4 8f be 56 70 e0 3e 69 df be 3e 0a 27 23 3f
       -0.28055203 0.43835706 0.37279823 0.63731444
000160 a7 a8 99 be d1 0b ee 3e 43 8a 4a 3e 8c 47 8b be
       -0.30011484 0.4649339 0.19779305 -0.27203023
000170 3d 86 a1 3e b2 b5 c9 3e fe 48 e5 3e b6 48 1c bf
       0.31547728 0.39396435 0.4478225 -0.6104845
000180 ca 51 a6 3c ea 59 1a 3f b2 c8 f9 3e f5 38 23 3f
       0.020302672 0.6029345 0.4878593 0.63758785
000190 17 6c 11 3f 03 c9 7d be 8c 2f d0 3e 00 01 06 3c
       0.56805557 -0.24783711 0.40661275 0.008178949
0001a0 53 4d 48 be f7 4f c3 bd 11 7e 12 bf a8 a7 8a bd
       -0.19560747 -0.095367365 -0.5722361 -0.06770259
0001b0 5a 8c 5f 3e ea 56 f5 bd f4 aa dd 3d eb 41 05 bf
       0.21830884 -0.11979468 0.10823622 -0.5205371
0001c0 80 38 d4 3e 6f 18 ad bd 61 25 99 be c1 af 35 3f
       0.41449356 -0.08451926 -0.2991133 0.70971304
0001d0 3a a8 44 3e 58 a8 5d bd 47 f1 eb bd 17 4b 7e be
       0.19204798 -0.054115623 -0.115206294 -0.24833332
0001e0 1b a8 c3 3e 9f f5 7b be 81 b6 8a be 1b 2c e3 3e
       0.38214192 -0.24605416 -0.27092364 0.44369587
0001f0 dc de 1f bf 5f 90 23 3e 15 66 b6 bd 7d 7f df be
       -0.6244943 0.15973042 -0.08906189 -0.43651953
000200 e1 d5 1b 3e 13 f5 d3 bd a4 16 c3 be 0f 23 04 be
       0.15218307 -0.103494786 -0.3810321 -0.12903999
000210 d2 bd 38 bd b4 74 79 3e f0 a6 8c bc 6f e9 b9 3d
       -0.0451029 0.24360925 -0.017169446 0.09077727
000220 be 4b fb 3e 4b 75 67 bd 43 8d 35 3f 9c 0f f8 3e
       0.49081224 -0.056508344 0.70918673 0.4844941
000230 38 68 32 be e7 c4 98 3e 80 a3 1b be a3 8a c8 3e
       -0.17422569 0.29837725 -0.15199089 0.3916827
000240 b4 9a 9a bd 55 f1 74 3e 2d 76 7f 3e 5f 19 46 3d
       -0.075490385 0.23920186 0.24947424 0.04836404
000250 f1 10 66 3e 60 84 fc 3e 81 f3 46 be 1a 22 ff be
       0.224674 0.49319744 -0.19428827 -0.49830705
000260 77 f1 bf be 3c ad a5 3e 6a 4d 8e bd ac 25 69 be
       -0.3748891 0.3235873 -0.06948359 -0.22768277
000270 c6 20 4b 3e e6 57 e0 3e fa 0a 28 3d 84 8b be 3e
       0.19836721 0.4381706 0.041026093 0.37215817
000280 d7 4f d0 3c f1 c5 31 bf 2b 02 fb 3e ff b1 f3 be
       0.025428696 -0.6944266 0.49025092 -0.47596738
000290 82 d5 5f be 57 84 8b be 07 7c 06 3f c0 75 2d bf
       -0.2185879 -0.27249405 0.52533 -0.677578
0002a0 ad 7a 0f 3f 8e 05 2c be 22 25 62 3d d7 9b 9c be
       0.56046563 -0.16798994 0.055211194 -0.30587646
0002b0 17 d0 fc 3e c0 69 09 3e 41 42 14 3f 54 a1 f6 3e
       0.4937751 0.13419247 0.57913595 0.4816996
0002c0 fc 95 0c bf ca f1 b9 be 20 05 25 3f 56 ad a4 bd
       -0.5491636 -0.36317283 0.64460945 -0.08040874
0002d0 67 1b 86 bc c6 f4 69 3d d7 d1 90 bd 5f 22 02 be
       -0.016370488 0.0571182 -0.07071274 -0.12708424
0002e0 83 06 6c 3e 6b a0 30 be 47 73 de be bf 47 67 3e
       0.23049359 -0.17248695 -0.43447325 0.22585963
0002f0 2d d3 a8 3e a7 47 0e 3f bc d7 8f 3e db 0e 17 3f
       0.32973614 0.5557808 0.2809428 0.5900704
000300 b3 2b f6 bd 44 ae 06 be 82 7a 0e 38 05 cc 19 3f
       -0.12020054 -0.13152415 3.3969533e-05 0.60076934
000310 71 1d ad 3d 3f df 8f be 2f 4e ec bd a8 4e 7f be
       0.08452881 -0.2810001 -0.1153835 -0.24932349
000320 55 85 de 3e ae 3c 0d be a3 76 bd be eb 09 35 be
       0.434611 -0.13792679 -0.37004575 -0.17679565
000330 65 71 96 3d 2a 51 0e 3e cd f7 e8 3e 99 6a a5 be
       0.07345847 0.13898149 0.45501557 -0.3230789
000340 40 a4 1a bf 7b 28 ba 3e 06 ad 15 bf 1b 42 9e be
       -0.60406876 0.3635901 -0.5846714 -0.3090981
000350 c4 0e b5 be 84 cb e5 3e 55 24 d0 3e bd ec bc be
       -0.35362828 0.44881833 0.4065272 -0.36899367
000360 46 82 cd be 40 27 29 3e ba 62 27 3e 30 e4 d2 be
       -0.40138453 0.16518879 0.16346255 -0.41189718
000370 02 8d e1 be 14 31 ec 3e 4c a1 b3 be 38 9d 0b 3e
       -0.44052893 0.46131194 -0.35083997 0.13634193
000380 bc 95 e3 3e 1f e2 a2 3e ca be 59 be a9 fa b0 be
       0.44450176 0.31813142 -0.21264187 -0.3456624
000390 98 f9 c1 be 36 6c 39 3e f6 75 cd 3e bd 39 a6 3e
       -0.37885737 0.18107685 0.4012906 0.32465926
0003a0 ba 52 88 be 0b 6c 98 3e 8e 9c 94 3e 0a 20 13 3f
       -0.26625615 0.2976993 0.29025692 0.5747076
0003b0 2f e9 f7 3e 3e 6c 3d be f8 2c 09 3f 02 ed 3f 3e
       0.48420092 -0.18498322 0.5358424 0.18742755
0003c0 d6 70 39 3e 77 db 8c be a4 5f 25 3f 69 2a 1d 3f
       0.1810945 -0.27511188 0.6459906 0.6139284
0003d0 4a 46 e5 3e 45 30 24 be a9 61 aa be 2b 8c d9 3e
       0.4478019 -0.16034038 -0.33277634 0.42489752
0003e0 70 a3 7c 3e 36 82 82 be b3 87 d5 3e 2e 23 37 be
       0.24671721 -0.25489968 0.41705093 -0.17884514
0003f0 98 e7 e4 be bd 0f 22 3f 24 dd 91 bd 11 0c a8 bd
       -0.44707942 0.63305265 -0.07122257 -0.082054265

fc3.bias f4 [10]
000000 86 cc 6b bd 61 4e 9d 3e b1 b6 2e be 66 dc 0a bb
       -0.057568096 0.3072386 -0.17061879 -0.0021188497
000010 bf b4 84 3e ef db 31 3e 8c 4f e0 bb 19 d4 af 3d
       0.25919148 0.17369054 -0.00684542 0.08585376
000020 b7 5c 5a 3d 14 02 a7 3e
       0.053311076 0.32618773
